…
Experiment DIR:  experiments/gan_15_2133_27_03_2023_09_59
data max 6.5206213 min 0.0
(38971, 56, 30) (9743, 56, 30) (38971, 9) (9743, 9)
cond max 22.267750474560664 min -37.89385322476621
Model: "generator"
__________________________________________________________________________________________________
 Layer (type)                   Output Shape         Param #     Connected to
==================================================================================================
 input_4 (InputLayer)           [(None, 10)]         0           []
 input_5 (InputLayer)           [(None, 9)]          0           []
 concatenate_2 (Concatenate)    (None, 19)           0           ['input_4[0][0]',
                                                                  'input_5[0][0]']
 dense_5 (Dense)                (None, 256)          5120        ['concatenate_2[0][0]']
 batch_normalization_8 (BatchNo  (None, 256)         1024        ['dense_5[0][0]']
 rmalization)
 dropout_8 (Dropout)            (None, 256)          0           ['batch_normalization_8[0][0]']
 leaky_re_lu_8 (LeakyReLU)      (None, 256)          0           ['dropout_8[0][0]']
 dense_6 (Dense)                (None, 4096)         1052672     ['leaky_re_lu_8[0][0]']
 batch_normalization_9 (BatchNo  (None, 4096)        16384       ['dense_6[0][0]']
 rmalization)
 dropout_9 (Dropout)            (None, 4096)         0           ['batch_normalization_9[0][0]']
 leaky_re_lu_9 (LeakyReLU)      (None, 4096)         0           ['dropout_9[0][0]']
 reshape_1 (Reshape)            (None, 8, 4, 128)    0           ['leaky_re_lu_9[0][0]']
 up_sampling2d_2 (UpSampling2D)  (None, 16, 8, 128)  0           ['reshape_1[0][0]']
 conv2d_5 (Conv2D)              (None, 16, 8, 128)   147584      ['up_sampling2d_2[0][0]']
 batch_normalization_10 (BatchN  (None, 16, 8, 128)  512         ['conv2d_5[0][0]']
 ormalization)
 dropout_10 (Dropout)           (None, 16, 8, 128)   0           ['batch_normalization_10[0][0]']
 leaky_re_lu_10 (LeakyReLU)     (None, 16, 8, 128)   0           ['dropout_10[0][0]']
 up_sampling2d_3 (UpSampling2D)  (None, 64, 32, 128)  0          ['leaky_re_lu_10[0][0]']
 conv2d_6 (Conv2D)              (None, 58, 32, 64)   57408       ['up_sampling2d_3[0][0]']
 batch_normalization_11 (BatchN  (None, 58, 32, 64)  256         ['conv2d_6[0][0]']
 ormalization)
 dropout_11 (Dropout)           (None, 58, 32, 64)   0           ['batch_normalization_11[0][0]']
 leaky_re_lu_11 (LeakyReLU)     (None, 58, 32, 64)   0           ['dropout_11[0][0]']
 conv2d_7 (Conv2D)              (None, 56, 30, 1)    577         ['leaky_re_lu_11[0][0]']
==================================================================================================
Total params: 1,281,537
Trainable params: 1,272,449
Non-trainable params: 9,088
__________________________________________________________________________________________________
Model: "discriminator"
__________________________________________________________________________________________________
 Layer (type)                   Output Shape         Param #     Connected to
==================================================================================================
 input_img (InputLayer)         [(None, 56, 30, 1)]  0           []
 conv2d_8 (Conv2D)              (None, 54, 28, 32)   320         ['input_img[0][0]']
 batch_normalization_12 (BatchN  (None, 54, 28, 32)  128         ['conv2d_8[0][0]']
 ormalization)
 dropout_12 (Dropout)           (None, 54, 28, 32)   0           ['batch_normalization_12[0][0]']
 leaky_re_lu_12 (LeakyReLU)     (None, 54, 28, 32)   0           ['dropout_12[0][0]']
 max_pooling2d_2 (MaxPooling2D)  (None, 27, 14, 32)  0           ['leaky_re_lu_12[0][0]']
 conv2d_9 (Conv2D)              (None, 25, 12, 16)   4624        ['max_pooling2d_2[0][0]']
 batch_normalization_13 (BatchN  (None, 25, 12, 16)  64          ['conv2d_9[0][0]']
 ormalization)
 dropout_13 (Dropout)           (None, 25, 12, 16)   0           ['batch_normalization_13[0][0]']
 leaky_re_lu_13 (LeakyReLU)     (None, 25, 12, 16)   0           ['dropout_13[0][0]']
 max_pooling2d_3 (MaxPooling2D)  (None, 12, 12, 16)  0           ['leaky_re_lu_13[0][0]']
 flatten_1 (Flatten)            (None, 2304)         0           ['max_pooling2d_3[0][0]']
 input_6 (InputLayer)           [(None, 9)]          0           []
 concatenate_3 (Concatenate)    (None, 2313)         0           ['flatten_1[0][0]',
                                                                  'input_6[0][0]']
 dense_7 (Dense)                (None, 128)          296192      ['concatenate_3[0][0]']
 batch_normalization_14 (BatchN  (None, 128)         512         ['dense_7[0][0]']
 ormalization)
 dropout_14 (Dropout)           (None, 128)          0           ['batch_normalization_14[0][0]']
 leaky_re_lu_14 (LeakyReLU)     (None, 128)          0           ['dropout_14[0][0]']
 dense_8 (Dense)                (None, 64)           8256        ['leaky_re_lu_14[0][0]']
 batch_normalization_15 (BatchN  (None, 64)          256         ['dense_8[0][0]']
 ormalization)
 dropout_15 (Dropout)           (None, 64)           0           ['batch_normalization_15[0][0]']
 leaky_re_lu_15 (LeakyReLU)     (None, 64)           0           ['dropout_15[0][0]']
 dense_9 (Dense)                (None, 1)            65          ['leaky_re_lu_15[0][0]']
==================================================================================================
Total params: 310,417
Trainable params: 309,937
Non-trainable params: 480
__________________________________________________________________________________________________