…
Experiment DIR:  experiments/gan_15_2133_27_03_2023_12_04
data max 6.5206213 min 0.0
(38971, 56, 30) (9743, 56, 30) (38971, 9) (9743, 9)
cond max 22.267750474560664 min -37.89385322476621
Model: "generator"
__________________________________________________________________________________________________
 Layer (type)                   Output Shape         Param #     Connected to
==================================================================================================
 input_7 (InputLayer)           [(None, 10)]         0           []
 input_8 (InputLayer)           [(None, 9)]          0           []
 concatenate_4 (Concatenate)    (None, 19)           0           ['input_7[0][0]',
                                                                  'input_8[0][0]']
 dense_10 (Dense)               (None, 256)          5120        ['concatenate_4[0][0]']
 batch_normalization_16 (BatchN  (None, 256)         1024        ['dense_10[0][0]']
 ormalization)
 dropout_16 (Dropout)           (None, 256)          0           ['batch_normalization_16[0][0]']
 leaky_re_lu_16 (LeakyReLU)     (None, 256)          0           ['dropout_16[0][0]']
 dense_11 (Dense)               (None, 4096)         1052672     ['leaky_re_lu_16[0][0]']
 batch_normalization_17 (BatchN  (None, 4096)        16384       ['dense_11[0][0]']
 ormalization)
 dropout_17 (Dropout)           (None, 4096)         0           ['batch_normalization_17[0][0]']
 leaky_re_lu_17 (LeakyReLU)     (None, 4096)         0           ['dropout_17[0][0]']
 reshape_2 (Reshape)            (None, 8, 4, 128)    0           ['leaky_re_lu_17[0][0]']
 up_sampling2d_4 (UpSampling2D)  (None, 16, 8, 128)  0           ['reshape_2[0][0]']
 conv2d_10 (Conv2D)             (None, 16, 8, 128)   147584      ['up_sampling2d_4[0][0]']
 batch_normalization_18 (BatchN  (None, 16, 8, 128)  512         ['conv2d_10[0][0]']
 ormalization)
 dropout_18 (Dropout)           (None, 16, 8, 128)   0           ['batch_normalization_18[0][0]']
 leaky_re_lu_18 (LeakyReLU)     (None, 16, 8, 128)   0           ['dropout_18[0][0]']
 up_sampling2d_5 (UpSampling2D)  (None, 64, 32, 128)  0          ['leaky_re_lu_18[0][0]']
 conv2d_11 (Conv2D)             (None, 58, 32, 64)   57408       ['up_sampling2d_5[0][0]']
 batch_normalization_19 (BatchN  (None, 58, 32, 64)  256         ['conv2d_11[0][0]']
 ormalization)
 dropout_19 (Dropout)           (None, 58, 32, 64)   0           ['batch_normalization_19[0][0]']
 leaky_re_lu_19 (LeakyReLU)     (None, 58, 32, 64)   0           ['dropout_19[0][0]']
 conv2d_12 (Conv2D)             (None, 56, 30, 1)    577         ['leaky_re_lu_19[0][0]']
==================================================================================================
Total params: 1,281,537
Trainable params: 1,272,449
Non-trainable params: 9,088
__________________________________________________________________________________________________
Model: "discriminator"
__________________________________________________________________________________________________
 Layer (type)                   Output Shape         Param #     Connected to
==================================================================================================
 input_img (InputLayer)         [(None, 56, 30, 1)]  0           []
 conv2d_13 (Conv2D)             (None, 54, 28, 32)   320         ['input_img[0][0]']
 batch_normalization_20 (BatchN  (None, 54, 28, 32)  128         ['conv2d_13[0][0]']
 ormalization)
 dropout_20 (Dropout)           (None, 54, 28, 32)   0           ['batch_normalization_20[0][0]']
 leaky_re_lu_20 (LeakyReLU)     (None, 54, 28, 32)   0           ['dropout_20[0][0]']
 max_pooling2d_4 (MaxPooling2D)  (None, 27, 14, 32)  0           ['leaky_re_lu_20[0][0]']
 conv2d_14 (Conv2D)             (None, 25, 12, 16)   4624        ['max_pooling2d_4[0][0]']
 batch_normalization_21 (BatchN  (None, 25, 12, 16)  64          ['conv2d_14[0][0]']
 ormalization)
 dropout_21 (Dropout)           (None, 25, 12, 16)   0           ['batch_normalization_21[0][0]']
 leaky_re_lu_21 (LeakyReLU)     (None, 25, 12, 16)   0           ['dropout_21[0][0]']
 max_pooling2d_5 (MaxPooling2D)  (None, 12, 12, 16)  0           ['leaky_re_lu_21[0][0]']
 flatten_2 (Flatten)            (None, 2304)         0           ['max_pooling2d_5[0][0]']
 input_9 (InputLayer)           [(None, 9)]          0           []
 concatenate_5 (Concatenate)    (None, 2313)         0           ['flatten_2[0][0]',
                                                                  'input_9[0][0]']
 dense_12 (Dense)               (None, 128)          296192      ['concatenate_5[0][0]']
 batch_normalization_22 (BatchN  (None, 128)         512         ['dense_12[0][0]']
 ormalization)
 dropout_22 (Dropout)           (None, 128)          0           ['batch_normalization_22[0][0]']
 leaky_re_lu_22 (LeakyReLU)     (None, 128)          0           ['dropout_22[0][0]']
 dense_13 (Dense)               (None, 64)           8256        ['leaky_re_lu_22[0][0]']
 batch_normalization_23 (BatchN  (None, 64)          256         ['dense_13[0][0]']
 ormalization)
 dropout_23 (Dropout)           (None, 64)           0           ['batch_normalization_23[0][0]']
 leaky_re_lu_23 (LeakyReLU)     (None, 64)           0           ['dropout_23[0][0]']
 dense_14 (Dense)               (None, 1)            65          ['leaky_re_lu_23[0][0]']
==================================================================================================
Total params: 310,417
Trainable params: 309,937
Non-trainable params: 480
__________________________________________________________________________________________________